Snake Game Bot/model/model.pth (torch, 16799 bytes, 4 tensors)

linear1.weight f4 [256, 11]
0.20869462 0.11955111 0.11676183 -0.5072675 0.23627353 -0.35881773 -0.51271474 -0.60573363
-0.57460725 -0.39481357 0.31050935 -0.076782145 -0.170151 0.03792256 -0.012961132 -0.30631158
-0.29065663 0.21753354 -0.37001756 0.24921438 -0.6753668 -0.34834966 -0.15747853 0.4816407
0.27553305 -0.11673385 0.06908571 -0.2123061 0.14593205 -0.0060574496 -0.03324898 -0.46873596
-0.2202521 0.026605014 0.10300426 0.07730447 0.20403977 -0.14601296 0.4378746 -0.37310833
-0.2909338 0.17751046 -0.4873358 0.41088855 -0.58066446 -0.23675528 0.13252947 0.26151785
0.28012732 -0.26941153 -0.16794449 0.2795143 0.42185315 -0.16047604 -0.17709334 -0.09098156
-0.37906834 0.17329729 -0.36927295 -0.041653946 0.07697719 -0.32921538 -0.30069566 -0.018426958
-0.35784936 0.09726696 0.5570912 0.30895534 -0.64291203 -0.156887 -0.28264472 -0.3165728
0.09613027 0.056632634 0.16117518 0.13173212 -0.08859574 -0.46144256 -0.34545675 0.090739295
0.21800643 0.14328045 -0.45919326 -0.4633459 0.38980487 0.44466844 -0.40221915 -0.34280947
-0.18855396 -0.010815797 0.6535314 0.010883044 -0.03711847 0.19080345 -0.31626773 0.030177796
0.007841006 -0.19808473 -0.6352658 0.26802254 -0.10243268 0.361602 -0.33579808 0.103116184
-0.31643733 0.23100857 0.28760567 -0.12183919 0.18638773 -0.09164321 -0.06790722 -0.0611759
-0.0032337704 0.5473539 0.54937464 -0.2507101 -0.42468745 -0.55711544 -0.67519 0.20877196
0.3869052 -0.01611543 -0.1263325 -0.15959291 -0.3600456 0.41127884 -0.38265437 0.33323792
-0.5602164 -0.47442344 0.32624215 -0.37846613 0.62892455 0.24930137 -0.4968537 0.26387355
0.035495307 0.23439427 -0.060333047 0.18941742 0.01927821 -0.0338857 0.306589 0.046394028
0.16712248 -0.15915246 0.40578488 -0.120016314 0.094295815 -0.6403481 0.31573325 -0.6655506
-0.6213573 -0.19062245 0.053878568 -0.34196085 -0.41211098 -0.4717856 0.6508991 -0.25297746
-0.04059838 -0.8098886 0.33265433 -0.2643934 -0.5054673 -0.36197364 -0.0064738696 0.0061055403
-0.23170823 0.13587007 0.039204918 0.15341812 0.039541066 -0.018186446 0.05083597 -0.2833121
0.14785604 -0.48195112 0.5571837 -0.3904036 -0.1299672 -0.15571754 -0.029385334 0.033455946
-0.31787193 -0.08736979 0.21125147 -0.27800947 0.70957804 -0.6285483 -0.09130504 -0.052969806
0.039401848 -0.018612597 -0.019964743 0.01342887 -0.13111682 -0.23955183 -0.06569085 -0.4279135
-0.02129916 0.10373004 -0.32611802 -0.35347444 -0.32226238 -0.37037462 0.002861063 0.23875676
-0.21740034 0.27595294 0.039538667 0.020551868 0.3912552 -0.5883864 -0.42504 -0.05305805
-0.4712319 0.44324526 -0.39278737 -0.031591184 -0.18983807 -0.24530032 -0.1984044 -0.04280232
-0.30607852 0.42062348 -0.25578597 0.2986082 -0.37396395 -0.21978135 -0.5874604 0.34799117
-0.15873867 -0.3700318 -0.47760135 -0.38999513 0.14744154 -0.06875261 0.15980844 0.29488277
-0.41465217 -0.28684887 0.025300639 -0.16142102 0.011717956 -0.16813475 0.27270746 -0.36467412
0.18653885 0.33832374 -0.13214849 -0.33553863 -0.3861764 -0.4730181 -0.32378882 0.21740721
00000000: 0bb4 553e 36d7 f43d d420 ef3d 48dc 01bf
00000010: b0f1 713e f5b6 b7be 4641 03bf 5c11 1bbf
00000020: 7619 13bf 0125 cabe 15fb 9e3e f53f 9dbd
00000030: 103c 2ebe b054 1b3d ee5a 54bc dfd4 9cbe
00000040: f2d0 94be 1dc1 5e3e f172 bdbe 0e32 7f3e
00000050: d7e4 2cbf e35a b2be 0d42 21be 9c99 f63e
00000060: ab12 8d3e 2812 efbd cf7c 8d3d c566 59be
00000070: 366f 153e 927d c6bb 1530 08bd 29fe efbe
00000080: c489 61be c2f2 d93c e6f3 d23d ce51 9e3d
00000090: cdef 503e 6c84 15be 1931 e03e 0e08 bfbe
000000a0: 46f5 94be 4dc5 353e 1484 f9be fc5f d23e
000000b0: 6da6 14bf fa6f 72be ceb5 073e abe5 853e
000000c0: d96c 8f3e 4ff0 89be a4f9 2bbe 801c 8f3e
000000d0: 23fd d73e d553 24be f557 35be 8a54 babd
000000e0: 3f15 c2be d874 313e 5811 bdbe 549d 2abd
000000f0: 38a6 9d3d eb8e a8be c8f4 99be 22f4 96bc
00000100: 0838 b7be e633 c73d 879d 0e3f 652f 9e3e
00000110: e295 24bf fca6 20be cfb6 90be d415 a2be
00000120: f2df c43d 9ff7 673d 1b0b 253e c9e4 063e
00000130: af71 b5bd 3342 ecbe b5df b0be 86d5 b93d
00000140: 143d 5f3e 1cb8 123e 611b ebbe ac3b edbe
00000150: 8194 c73e 95ab e33e abef cdbe b984 afbe
00000160: 4a14 41be be34 31bc d54d 273f cc4e 323c
00000170: 8909 18bd fb61 433e d8ed a1be 6d37 f73c
00000180: 9077 003c b9d6 4abe c8a0 22bf 403a 893e
00000190: 3ac8 d1bd e623 b93e baed abbe 942e d33d
000001a0: 1304 a2be 838d 6c3e 0d41 933e d386 f9bd
000001b0: 6ddc 3e3e 6faf bbbd f112 8bbd 9593 7abd
000001c0: aaed 53bb 631f 0c3f d1a3 0c3f 135d 80be
000001d0: a270 d9be 1e9f 0ebf 40d9 2cbf 51c8 553e
000001e0: 7018 c63e 8204 84bc 4f5d 01be 536c 23be
000001f0: e657 b8be 2493 d23e 46eb c3be 299e aa3e
00000200: 586a 0fbf a1e7 f2be 3609 a73e 50c6 c1be
00000210: 3301 213f dc48 7f3e 9c63 febe 6f1a 873e
00000220: 8763 113d 0d05 703e c91f 77bd a4f6 413e
00000230: 56ed 9d3c bbcb 0abd 3cf9 9c3e aa07 3e3d
00000240: 2822 2b3e ddf8 22be 09c3 cf3e 1dcb f5bd
00000250: 2a1e c13d daed 23bf caa7 a13e 8661 2abf
00000260: 4611 1fbf 8832 43be c6af 5c3d 7e15 afbe
00000270: 3600 d3be e28d f1be 53a1 263f 4386 81be
00000280: 7d4a 26bd dc54 4fbf ab51 aa3e 925e 87be
00000290: 4e66 01bf 9c54 b9be c122 d4bb fc10 c83b
000002a0: ec44 6dbe 8621 0b3e 5695 203d a419 1d3e
000002b0: d0f5 213d befb 94bc 6139 503d 490e 91be
000002c0: 9367 173e 4cc2 f6be 97a3 0e3f fbe2 c7be
000002d0: 1f16 05be 6b74 1fbe 83b9 f0bc 1a09 093d
000002e0: 1cc0 a2be efee b2bd 4e52 583e 4257 8ebe
000002f0: e8a6 353f 8be8 20bf 23fe babd def6 58bd
00000300: d563 213d 7279 98bc 1a8d a3bc c304 5c3c
00000310: 7d43 06be 134d 75be ed88 86bd 7a17 dbbe
00000320: 937b aebc 6a70 d43d f1f8 a6be 9afa b4be
00000330: 93ff a4be bea1 bdbe ac80 3b3b a77c 743e
00000340: 329e 5ebe b449 8d3e 4cf3 213d 645c a83c
00000350: 9a52 c83e 7ea0 16bf d89e d9be 6653 59bd
00000360: 4f45 f1be 0bf1 e23e 6d1b c9be c265 01bd
00000370: e964 42be 0230 7bbe 862a 4bbe 7c51 2fbd
00000380: 53b6 9cbe f65b d73e 61f6 82be 2de3 983e
00000390: 3478 bfbe 5d0e 61be ce63 16bf e62b b23e
000003a0: 648c 22be cf74 bdbe 2a88 f4be 71ad c7be
000003b0: eafa 163e 2bce 8cbd d3a4 233e e0fa 963e
000003c0: 4a4d d4be dbdd 92be 4943 cf3c 8d4b 25be
000003d0: abfc 3f3c 842b 2cbe 50a0 8b3e 91b6 babe
000003e0: 0a04 3f3e c538 ad3e ef51 07be b8cb abbe
000003f0: eab8 c5be 6e2f f2be a6c7 a5be ff9f 5e3e

linear1.bias f4 [256]
-0.012603694 0.10032572 0.1081535 -0.06747566 -0.11673658 0.14909457 -0.15574366 0.087100975
0.48012444 -0.29554293 0.004701114 -0.14907704 -0.33911327 0.039404765 0.07542208 -0.33837596
0.058077317 0.46079248 0.07256561 -0.007869578 -0.16911416 -0.03984837 -0.19006918 -0.21132997
0.04501229 -0.39304143 -0.27969682 0.39339286 -0.3330698 -0.40547195 -0.36013272 -0.22804339
-0.13080189 0.031769857 -0.22842573 0.2914013 -0.074985445 -0.25820428 -0.23701309 -0.39301467
-0.25068045 -0.1187955 0.025488345 -0.05173766 -0.1458885 -0.43275568 -0.10844472 -0.18281491
0.1869164 0.053020857 -0.26421073 -0.009292566 -0.32813957 -0.15326157 -0.084507436 0.6928597
0.36380908 0.28399807 -0.29109204 0.00032822572 0.03472556 -0.258192 -0.10874801 -0.029149752
-0.11838539 0.283828 -0.17889015 -0.07411818 -0.209001 -0.21398364 0.18109831 -0.42814535
-0.4459208 -0.29808563 -0.08806458 0.35152653 -0.20859818 -0.4016714 0.24073802 0.015802221
0.12721808 -0.102873765 -0.5457591 -0.36807984 -0.24358308 -0.16370986 -0.33886093 0.08603058
0.2679168 -0.07522346 -0.3055154 0.06053604 -0.21262237 0.3340839 -0.21405776 0.31525314
-0.21049619 0.04713903 -0.11039202 -0.2393461 0.06777644 -0.3822145 -0.4136511 -0.19230932
-0.0865387 -0.38361606 -0.2280517 0.16429396 -0.14491779 -0.40363654 0.064069174 -0.43457675
0.08238797 -0.37510893 -0.424872 -0.26987085 0.48719534 -0.093931325 -0.34701654 0.12965809
0.035488553 0.051636733 -0.4110698 -0.19961159 -0.226263 -0.17542282 0.10763388 0.11925983
-0.09541779 0.15113148 1.6896733 -0.10972195 0.4834429 -0.087279074 -0.1860316 -0.45668682
-0.32324475 0.10674783 -0.19151643 -0.09153552 -0.45508114 -0.17299794 -0.24208494 -0.07398173
-0.30050737 -0.3268347 -0.296553 -0.333733 -0.29780465 -0.051402565 -0.353289 0.034415357
-0.31332776 0.13378845 -0.17713197 -0.2910141 0.3220631 0.030854566 -0.19109775 0.0025269128
0.026311072 -0.34548834 -0.3284 -0.43325606 -0.04978713 -0.09084585 0.3157156 -0.054949444
-0.12997372 0.31515965 0.17910719 -0.2617447 -0.3772749 -0.25584558 -0.1943168 -0.15529436
0.28208262 -0.35946807 0.036481157 0.018738063 -0.15705562 0.020712826 0.13879628 -0.11028993
-0.4738393 -0.28722113 -0.111798346 0.030324196 0.37124145 -0.38223547 -0.012336363 -0.22732055
-0.3783263 -0.4492277 0.35037407 0.22839724 -0.18870799 -0.115741245 -0.16008708 0.21026804
-0.31756714 -0.24053678 -0.37563807 -0.33315018 -0.16482092 -0.31219488 -0.40958998 0.30467686
0.54460204 -0.23852363 -0.04428892 0.018026229 -0.17376004 -0.23423597 -0.21382238 -0.012780984
0.12866846 -0.29667106 -0.2088104 -0.45237333 -0.324994 -0.4070036 -0.30856487 0.0059382836
-0.28545675 -0.24710068 0.5071517 0.8296777 0.14268453 0.019943865 -0.2871128 -0.11896748
-0.15995918 -0.32639813 -0.15260787 0.17744608 0.3470117 -0.46850652 -0.4452077 0.10925161
0.32965612 -0.29819104 -0.2547451 -0.017981924 -0.11199104 -0.38090727 -0.082077414 0.49305153
-0.22682211 -0.352708 -0.06521103 -0.17300889 -0.16400628 -0.3194899 -0.3117036 -0.025358101
00000000: b97f 4ebc 9277 cd3d 957f dd3d ae30 8abd
00000010: 9713 efbd 3fac 183e 447b 1fbe ff61 b23d
00000020: dfd2 f53e 6751 97be cd0b 9a3b a7a7 18be
00000030: 41a0 adbe e466 213d e476 9a3d 9d3f adbe
00000040: 7be2 6d3d feec eb3e 479d 943d 67ef 00bc
00000050: 432c 2dbe 0b38 23bd 7fa1 42be e266 58be
00000060: cf5e 383d ba3c c9be 6c34 8fbe ca6a c93e
00000070: 2088 aabe 059a cfbe 5163 b8be 3584 69be
00000080: eef0 05be 1c21 023d 6fe8 69be 8d32 953e
00000090: f891 99bd 5a33 84be 8fb3 72be 3839 c9be
000000a0: 3059 80be 0e4b f3bd efcc d03c deea 53bd
000000b0: cc63 15be 2792 ddbe 4418 debd d533 3bbe
000000c0: 0367 3f3e 662c 593d a146 87be d93f 18bc
000000d0: e901 a8be 9af0 1cbe 3c12 adbd 415f 313f
000000e0: 2f45 ba3e 3268 913e 040a 95be b615 ac39
000000f0: 643c 0e3d be31 84be 47b7 debd 76cb eebc
00000100: 0a74 f2bd e751 913e fb2e 37be 46cb 97bd
00000110: 5c04 56be 871e 5bbe d671 393e de35 dbbe
00000120: bb4f e4be ae9e 98be 345b b4bd 49fb b33e
00000130: c39a 55be e0a7 cdbe 0784 763e a973 813c
00000140: 7545 023e 7baf d2bd deb6 0bbf f674 bcbe
00000150: d86d 79be 8fa3 27be 2e7f adbe cd30 b03d
00000160: 642c 893e c20e 9abd 846c 9cbe a4f4 773d
00000170: aeb9 59be 0c0d ab3e f531 5bbe dc68 a13e
00000180: 508c 57be db14 413d 3615 e2bd 2517 75be
00000190: 60ce 8a3d 9eb1 c3be 14ca d3be bcec 44be
000001a0: 343b b1bd 5369 c4be 6386 69be ad3c 283e
000001b0: 5465 14be 73a9 cebe b336 833d d880 debe
000001c0: 06bb a83d 470e c0be d388 d9be 832c 8abe
000001d0: ab71 f93e 115f c0bd 27ac b1be 17c5 043e
000001e0: 725c 113d 0a81 533d be77 d2be fb66 4cbe
000001f0: 7db1 67be 0aa2 33be 276f dc3d 7f3e f43d
00000200: 676a c3bd 36c2 1a3e 3747 d83f e7b5 e0bd
00000210: d485 f73e 5fbf b2bd 117f 3ebe dbd2 e9be
00000220: 5680 a5be 9b9e da3d e21c 44be fa76 bbbd
00000230: 6500 e9be 5f26 31be 1de5 77be bc83 97bd
00000240: 1adc 99be e156 a7be cbd5 97be 0ddf aabe
00000250: da79 98be 7f8b 52bd 4ce2 b4be 1ef7 0c3d
00000260: 7f6c a0be d7ff 083e 1562 35be cdff 94be
00000270: 74e5 a43e b7c2 fc3c 21af 43be 909a 253b
00000280: 518a d73c d9e3 b0be 0b24 a8be bdd3 ddbe
00000290: 97ed 4bbd 640d babd 7aa5 a13e ab12 61bd
000002a0: d517 05be 9b5c a13e e067 373e 6703 86be
000002b0: 2d2a c1be 31fe 82be fcfa 46be 7c05 1fbe
000002c0: 226d 903e 330c b8be 446d 153d 9180 993c
000002d0: 30d3 20be f2ad a93c 9d20 0e3e b0df e1bd
000002e0: 119b f2be a60e 93be 88f6 e4bd 736a f83c
000002f0: 5c13 be3e 5eb4 c3be 751e 4abc b8c6 68be
00000300: fcb3 c1be 2c01 e6be 3b64 b33e f7e0 693e
00000310: ab3c 41be bf09 edbd deed 23be 8150 573e
00000320: 2998 a2be 464f 76be a253 c0be a992 aabe
00000330: d1c6 28be 02d8 9fbe c7b5 d1be 9bfe 9b3e
00000340: 0a6b 0b3f 8a3f 74be 4c68 35bd beab 933c
00000350: 27ee 31be 8edb 6fbe 41f4 5abe 5567 51bc
00000360: aac1 033e 45e5 97be 65d2 55be 7a9d e7be
00000370: 9d65 a6be c762 d0be 37fc 9dbe ef95 c23b
00000380: 6327 92be f607 7dbe b2d4 013f c265 543f
00000390: e51b 123e 5161 a33c 7300 93be 39a5 f3bd
000003a0: 57cc 23be a81d a7be 3d45 1cbe 6db4 353e
000003b0: 84ab b13e 16e0 efbe 43f2 e3be 4fbf df3d
000003c0: b0c8 a83e 7fac 98be f36d 82be d44e 93bc
000003d0: 8f5b e5bd 4706 c3be 3418 a8bd 4071 fc3e
000003e0: 0e44 68be 2596 b4be 5c8d 85bd 3e29 31be
000003f0: 43f1 27be 2e94 a3be 9d97 9fbe cbbb cfbc

linear2.weight f4 [3, 256]
-0.08397841 -0.3467122 0.067777544 -0.3720215 0.10215823 0.03475359 -0.016183272 0.27387765
0.28475407 -0.054229762 -0.31509665 -0.3974112 -0.06900578 0.21160369 0.41090816 0.20812714
0.111540996 0.14891793 -0.026434656 -0.50777423 0.026741955 -0.057321284 -0.11628294 -0.16594446
0.44752008 -0.024630638 -0.24860217 0.2371213 -0.09774397 -0.21388064 -0.07261717 -0.29649255
0.21882963 -0.21797994 -0.12156718 0.11540037 -0.21349028 -0.15079054 0.2769422 -0.21223396
-0.089148186 -0.051391654 0.60458505 -0.04252094 -0.60753244 -0.18228249 0.37445986 -0.098578975
0.547436 -0.16284992 -0.020517476 -0.03210378 0.015472979 -0.16199765 0.24773924 0.32360083
0.21674629 0.15891463 0.027228743 0.40631065 -0.560722 -0.06595944 0.4923244 0.43173108
0.013206794 -0.09760341 -0.53724325 0.008300523 -0.39561778 -0.15240781 -0.052797545 -0.12653899
-0.22842433 -0.1846792 -0.0014931721 0.29971188 -0.072481796 0.052532505 0.07682336 -0.13274775
0.35714135 -0.03487433 -0.26909712 -0.21494442 -0.19607632 -0.22829682 -0.13665079 0.1040134
0.31337196 0.03719881 0.0043099527 0.29586515 0.027033757 0.45499858 -0.3171925 0.17691484
-0.057249013 0.2558473 -0.021125123 -0.0824747 -0.31839547 -0.07000863 -0.20890847 0.0001336846
-0.23745406 -0.17083889 -0.23481248 0.1325847 0.11773822 -0.06819085 -0.6722318 0.06307078
-0.3226175 -0.015983695 0.046590388 -0.08590631 0.23976569 0.013613347 -0.12212209 0.042156566
0.031425778 -0.30259636 -0.041440945 -0.2885625 -0.12712502 -0.0117338225 0.06907727 0.06897792
-0.48055544 0.11192551 0.40561113 0.3375764 0.46373358 0.16813836 -0.012944966 0.05554168
-0.004170365 0.45362806 0.004914078 -0.11865073 -0.020405637 -0.13661204 -0.43079263 -0.13516168
-0.29785734 -0.009318106 -0.017780233 -0.015756033 0.023609342 0.5515768 -0.00043611578 0.4518253
-0.01256001 0.47827014 -0.0813602 -0.4119036 0.16291404 0.3732842 0.0068613347 0.09974499
-0.26728615 0.0075894343 -0.027693013 -0.021195617 -0.33123904 -0.07369757 0.40585878 0.25284255
-0.4457372 0.4604958 0.132354 -0.046228055 -0.16077611 -0.47065037 -0.016735496 -0.14186352
0.18558411 -0.14653634 -0.12286381 -0.08145154 -0.07094785 -0.08550674 0.173883 -0.013683368
-0.03007765 -0.1081172 -0.50380826 -0.14150386 0.5268144 0.022113197 0.023204103 0.012729765
0.013670502 0.009101943 0.40208808 0.52384126 -0.11255977 0.008206795 -0.0008770004 0.31476435
-0.05880088 -0.018425079 -0.094354026 -0.2324868 -0.27515182 -0.18166003 0.018989034 0.35503936
0.32897705 -0.019097095 0.003239362 0.32347637 -0.013421335 -0.63467103 0.021539627 -0.23152144
0.5249525 0.029959228 -0.022470431 -0.022251088 -0.065719314 0.061310705 -0.16600017 0.17746675
-0.31623083 0.059671815 0.49856916 0.42236426 0.41564074 0.094774276 -0.040553093 0.096033424
-0.5361284 -0.09079081 0.0401337 0.016799238 0.14021914 -0.14457609 0.008282495 -0.0017714116
0.38227698 -0.087399356 0.03567623 0.047287922 0.18506756 -0.022435488 -0.19097519 0.4192743
-0.1213532 -0.087644815 0.03270035 -0.0324713 -0.2763768 -0.058827665 -0.60784864 0.20201427
00000000: dffc abbd 4384 b1be f4ce 8a3d 9a79 bebe
00000010: 5638 d13d c859 0e3d c892 84bc b139 8c3e
00000020: 49cb 913e 0720 5ebd 5954 a1be 7b79 cbbe
00000030: e752 8dbd a3ae 583e 8e62 d23e 481f 553e
00000040: 9b6f e43d f17d 183e 7e8d d8bc 7efd 01bf
00000050: f211 db3c b9c9 6abd c025 eebd 58ed 29be
00000060: 5a21 e53e 31c6 c9bc 9191 7ebe edcf 723e
00000070: fe2d c8bd 8703 5bbe 50b8 94bd dfcd 97be
00000080: e014 603e 2236 5fbe 37f8 f8bd 0757 ec3d
00000090: 329d 5abe d668 1abe 5ecb 8d3e dc53 59be
000000a0: 5393 b6bd 0e80 52bd 16c6 1a3f 702a 2ebd
000000b0: 3f87 1bbf 43a8 3abe 34b9 bf3e c6e3 c9bd
000000c0: c424 0c3f 21c2 26be 4414 a8bc 417f 03bd
000000d0: 6182 7d3c b6e2 25be 5baf 7d3e 02af a53e
000000e0: bdf2 5d3e 84ba 223e d00e df3c f307 d03e
000000f0: 7a8b 0fbf be15 87bd f211 fc3e db0b dd3e
00000100: 4f61 583c 4ce4 c7bd c688 09bf ebfe 073c
00000110: 6a8e cabe cb10 1cbe 3d42 58bd 7093 01be
00000120: 11e8 69be 8b1c 3dbe 8bb6 c3ba d673 993e
00000130: 5671 94bd 532c 573d 9155 9d3d 07ef 07be
00000140: 3bdb b63e 63d8 0ebd 19c7 89be 641a 5cbe
00000150: 3bc8 48be a4c6 69be 2fee 0bbe fa04 d53d
00000160: 4a72 a03e c85d 183d 813a 8d3b a37b 973e
00000170: e675 dd3c 93f5 e83e 0e67 a2be 2a29 353e
00000180: f17d 6abd 6bfe 823e 980e adbc 7fe8 a8bd
00000190: bb04 a3be af60 8fbd 1aec 55be b02d 0c39
000001a0: 2827 73be 64f0 2ebe af72 70be 49c4 073e
000001b0: bc20 f13d a5a7 8bbd 6217 2cbf 412b 813d
000001c0: 1f2e a5be 3df0 82bc 90d5 3e3d a6ef afbd
000001d0: 2385 753e 840a 5f3c 251b fabd 5dac 2c3d
000001e0: 51b8 003d e9ed 9abe fbbd 29bd 77be 93be
000001f0: 102d 02be 383f 40bc 6278 8d3d 4c44 8d3d
00000200: 5d0b f6be 3439 e53d 43ac cf3e d0d6 ac3e
00000210: 7d6e ed3e 762c 2c3e 1f17 54bc ac7f 633d
00000220: 8fa7 88bb f041 e83e 4606 a13b 27ff f2bd
00000230: b929 a7bc 07e4 0bbe da90 dcbe d367 0abe
00000240: c280 98be f8aa 18bc daa7 91bc cc12 81bc
00000250: 6168 c13c 2334 0d3f 78a6 e4b9 a555 e73e
00000260: 80c8 4dbc d3df f43e 2da0 a6bd 07e5 d2be
00000270: f0d2 263e 1b1f bf3e 0cd5 e03b 1a47 cc3d
00000280: bbd9 88be cab0 f83b 75dc e2bc 6ea2 adbc
00000290: 2a98 a9be c0ee 96bd b9cc cf3e 9474 813e
000002a0: ab37 e4be 1bc6 eb3e cf87 073e a159 3dbd
000002b0: 7ea2 24be 16f9 f0be e118 89bc ac44 11be
000002c0: c309 3e3e 9f0d 16be 05a0 fbbd 11d0 a6bd
000002d0: 1b4d 91bd 281e afbd 630e 323e 3530 60bc
000002e0: 6765 f6bc 8d6c ddbd 94f9 00bf 63e6 10be
000002f0: 4fdd 063f bc26 b53c 8816 be3c 8190 503c
00000300: 3efa 5f3c 5120 153c 7dde cd3e 761a 063f
00000310: bd85 e6bd cb75 063c 80e6 65ba cb28 a13e
00000320: 31d9 70bd 31f0 96bc af3c c1bd 0511 6ebe
00000330: b3e0 8cbe 1605 3abe e48e 9b3c b8c7 b53e
00000340: ae6f a83e 8371 9cbc 7a4b 543b b29e a53e
00000350: 29e5 5bbc cd79 22bf df73 b03c f513 6dbe
00000360: 4963 063f 0e6d f53c e913 b8bc ea47 b6bc
00000370: d997 86bd ef20 7b3d f3fb 29be d8b9 353e
00000380: 02e9 a1be 6f6a 743d 7544 ff3e 2140 d83e
00000390: ddce d43e 0419 c23d 001b 26bd 2cad c43d
000003a0: b63f 09bf 88f0 b9bd 3c63 243d 8e9e 893c
000003b0: 9b95 0f3e c10b 14be 4db3 073c b62e e8ba
000003c0: cfb9 c33e 6ffe b2bd 3d21 123d fbb0 413d
000003d0: 5a82 3d3e a1ca b7bc 008f 43be 1fab d63e
000003e0: 0788 f8bd 207f b3bd cdf0 053d a000 05bd
000003f0: 4381 8dbe 47f5 70bd f89b 1bbf d4dc 4e3e

linear2.bias f4 [3]
0.37580618 0.19259892 0.15025029
00000000: ab69 c03e a738 453e 36db 193e
