NLTK ChatBot/data.pth (torch, 5015 bytes, 6 tensors)

l1.weight f4 [8, 54]
00000000: 62db d93e 8a3a 443e 484c f8be d422 27bd
00000010: ec09 5ebc f619 95be 7cf4 02be d7cf e1be
00000020: d5e6 85be 93f2 dbbe 5b05 443d 3c50 e83e
00000030: 086b 693e dfeb 053f 5ce4 7fbc 6013 9a3e
00000040: 9161 813e ea1e 8cbe a09c f23e 5164 a83e
00000050: 1063 883e a767 513e cf0d 933e c235 dd3e
00000060: a5b9 0a3e 1c20 9ebd 93ca d93e 9a73 9fbe
00000070: 0856 e03e c1ca 06be f9b3 debd 5246 123f
00000080: d2c3 c33e a139 c7be e463 4a3d cf0e ba3e
00000090: 74e7 d33e c6c0 bdbe a9f0 02be cdba 63be
000000a0: ba67 86be effb 133f ca5b b03e 3e59 343e
000000b0: f0af 313e bdc4 9a3d cd62 223f 0abb 5d3e
000000c0: 5b57 9d3e 4ac7 213f 59ff 893e 0c68 933e
000000d0: 9a16 04be 0930 313e 0320 a13d d4ba 1fbd
000000e0: 2df8 173f 859f c3bd f088 34be 927e 323f
000000f0: b5f6 c43e 4927 c23e 9c3f 2d3f 5925 e53e
00000100: 69fa 2cbe 9782 063f 1852 e33e f875 173f
00000110: 307d 213d 875a eb3e 0aba 0cbe b0bd 083f
00000120: 818b 4a3d ecf3 9cbe 2e86 c63d 58e5 9cbe
00000130: fed8 9cbe 9a91 cfbc 89c5 a73e 3280 68be
00000140: bca1 e63d 510e d3bd 9977 a53e 3263 d3bd
00000150: 2d0d 743e 1c7b 123f 1616 f6bd 7c09 303f
00000160: 4049 16be 0c40 8c3e 7f82 5b3e d936 303f
00000170: 2c1b fd3e 1c83 eb3e de10 753e a38c dcbd
00000180: 5328 0e3f 4da8 1d3e c1c4 4a3f e44f 88bd
00000190: 761f 733d 34cc c53c 5f61 853c 2c20 87bc
000001a0: 6d56 d03e be63 0abe db6e fd3e f533 2f3e
000001b0: aa8b d63e 204a 63be a300 093f 1fa3 d33e
000001c0: dc3a 293f ddff fdbd f146 e63e edd7 223f
000001d0: a8f3 d23e 3d5b d83e de94 083f 49b4 96be
000001e0: f35b 093c fb51 97be eb82 c4be ee82 1fbe
000001f0: 990c 0e3f ca79 7fbb bf77 9fbe fc67 203f
00000200: 5b56 c43e 6af7 483f 2cbf 3e3f 57f2 01bb
00000210: 7d93 9b3e 3730 f03e 49f9 00bf 9763 47bf
00000220: fab0 f0be bbac 1fbf 9f3b 93bd e024 b2be
00000230: 7957 2d3e 9b0d 283f fdde 6fbe 85e1 a1be
00000240: 28a3 02bf 52ba a93e 8459 073f d3b9 ef3e
00000250: e65c abbd 3277 21bf 5de2 9ebe a7a3 88be
00000260: a716 b73d f0fe 35be 486d 433f f82c b53e
00000270: 4d81 bc3e 9816 1bbf 3383 1ebe 28ba c4be
00000280: d81c ce3e 6d4b 103f 3c69 f5bd c04a f53e
00000290: 387b 01bf c0b8 c73e 1fd2 273e df61 0abf
000002a0: c75c 1fbe d0e9 8bbe f784 adbe 389e 4ebe
000002b0: 2378 d53e 26b2 6ebe 48fa 1a3e 5c98 79be
000002c0: ff03 3a3e 7759 84bd 0576 f93e 87b3 21bf
000002d0: 377c 993e 2f32 f23e bbf4 a33d e583 0c3f
000002e0: e1e2 283f c587 f53e a9f9 86be 376b bc3e
000002f0: 155e 053f 89a3 043f b5af be3c a8ca bf3e
00000300: 3a60 65be d762 93be ab75 15bd 84e2 a1be
00000310: deb3 c43e 8cb4 43bd 5df5 a13d a561 fdbe
00000320: 7d0b 21bd 16f1 d23b 3532 c9be 518a d43e
00000330: eddc 6ebe e83d 0e3e c16e b1be 64b8 e53e
00000340: 0192 c3be 44ea 2cbd 7b2f f13e 2c6c 0b3f
00000350: 0ed5 313d a951 003f 86c7 37be 222e 1e3d
00000360: 688f 023f 83f7 433d e468 013e 5153 8f3c
00000370: 7e81 d7bc 31c5 abbd 7bd3 bd3d 9e7b 9d3e
00000380: b910 873e 1a69 873e 5d22 a73c bbe8 c03e
00000390: a330 40bd 7fc3 943e b078 69bd f8ae f43e
000003a0: 3dd6 633d 4b04 ae3c 8df3 f23e cdc4 2abe
000003b0: 7d46 aa3e a4d7 37be 900b 1cbe 305b 9a3c
000003c0: f567 d53e aa76 3fbd 0cdd b93e 3b6f f4be
000003d0: c3d5 973e e57c f4be a8de 01bd c0e8 853e
000003e0: 4bce a03e 359b 8b3e f46c 67be f4e0 ff3e
000003f0: bdfe 2c3e 4eba 0a3e 4b08 c43c c664 3b3e
0.42550188 0.19162956 -0.48495698 -0.0408047 -0.01355217 -0.2912137 -0.12788576 -0.44103882
-0.26152673 -0.42958507 0.04785667 0.45373714 0.22794735 0.52313036 -0.01561841 0.30092907
0.2526975 -0.27367336 0.4738512 0.32889035 0.2663808 0.20449696 0.28721473 0.43205076
0.1354738 -0.07720968 0.42537364 -0.31142884 0.43815637 -0.13163282 -0.10874171 0.5713855
0.38235337 -0.38911155 0.04941167 0.36339423 0.41387522 -0.37061137 -0.12787117 -0.22239228
-0.26251012 0.57806295 0.3444503 0.17612168 0.17352271 0.07557056 0.6343201 0.21653381
0.3073071 0.63194716 0.26952627 0.2879032 -0.12899247 0.1730348 0.07867434 -0.038996533
0.5936306 -0.0955191 -0.17630363 0.6972438 0.38469473 0.37920597 0.67675185 0.44755057
-0.16892399 0.52543014 0.4439857 0.5916438 0.03942603 0.45967504 -0.13742843 0.5341444
0.049449448 -0.30654848 0.096935615 -0.30643725 -0.30634302 -0.025337983 0.32767895 -0.22705153
0.11261317 -0.10305465 0.32317808 -0.103216544 0.23833151 0.572191 -0.12015931 0.6876447
-0.1467638 0.27392614 0.21436499 0.6883369 0.49434793 0.45998466 0.23932216 -0.10769012
0.5553028 0.15396233 0.7920647 -0.06655863 0.059356175 0.024145223 0.016281782 -0.016494833
0.40690938 -0.13514611 0.4949864 0.17109664 0.4190343 -0.22196245 0.53516597 0.4133539
0.6610544 -0.12402318 0.44976 0.63610727 0.4120152 0.4225711 0.53352153 -0.29434422
0.008383739 -0.29554734 -0.38381132 -0.1557729 0.5548797 -0.0038982504 -0.31146047 0.6265867
0.38347134 0.78502524 0.74510455 -0.0019828284 0.30385962 0.46911785 -0.5038038 -0.7788634
-0.47010022 -0.6237294 -0.07189106 -0.34793758 0.169279 0.6564576 -0.23424907 -0.3161737
-0.51030207 0.33149964 0.52870965 0.4682146 -0.08367328 -0.630725 -0.31032076 -0.26687357
0.089398675 -0.17773032 0.76338625 0.3538587 0.368174 -0.6058135 -0.15479736 -0.38423276
0.4025638 0.5636509 -0.119829625 0.47908592 -0.5057864 0.3900814 0.16388749 -0.5405559
-0.15562735 -0.27326822 -0.33890507 -0.20177543 0.4169322 -0.23310146 0.15134537 -0.24374527
0.18165587 -0.064623766 0.48722854 -0.6316456 0.2997758 0.47303912 0.08005663 0.54888755
0.6597119 0.47955146 -0.2636235 0.36800548 0.5209668 0.51812035 0.023277143 0.37459302
-0.22399989 -0.28786346 -0.03648917 -0.3161813 0.38418478 -0.047779605 0.079081275 -0.4948856
-0.039317597 0.006437431 -0.39296117 0.41511777 -0.23326464 0.13890803 -0.3465481 0.4486724
-0.3819733 -0.0422156 0.47106537 0.5446193 0.043416075 0.50124604 -0.17947206 0.038618214
0.5100007 0.047843467 0.12637669 0.017495783 -0.026306864 -0.08387221 0.09268852 0.30758375
0.26379946 0.26447374 0.020402128 0.3767756 -0.046921384 0.29055402 -0.056999862 0.4778974
0.055624235 0.021242281 0.4745144 -0.16676636 0.33256903 -0.17953354 -0.15238786 0.01884231
0.41680875 -0.046744026 0.36301458 -0.47741112 0.29655275 -0.47751537 -0.031706482 0.26154137
0.3140739 0.2726685 -0.22600156 0.49976313 0.1689405 0.13547632 0.023929736 0.18300161

l1.bias f4 [8]
00000000: e3ff f13e 05d7 9c3e d8c9 873f efb1 213f
00000010: 044f 163f ac5b 793f e1ee 113f fdcf ff3e
0.4726554 0.30632797 1.0608473 0.6316213 0.5871432 0.97405505 0.57005125 0.4996337

l2.weight f4 [8, 8]
00000000: ba42 5cbe 172f 4dbe 4601 e9bd 3722 723d
00000010: b128 7a3e 4a45 4fbe 7518 783e fd04 0fbe
00000020: 79b6 b33f a643 5bbf 25ae 2f3f 5a00 aa3f
00000030: 47fd 4e3f 4acc 25be 7662 a33e e961 84bf
00000040: 2e09 a83e 8be6 48be 0ebc 74be b679 94be
00000050: b973 45be 05aa fe3d 8cd4 3e3d 1852 003d
00000060: 2dad 453f c0ab 773f 9b18 873f dea8 8ebf
00000070: 96ce 973f 95db 5c3f dda6 09bf 85b0 243e
00000080: c5f2 0dbf 531a 3dbf cd5f 2e3f 0008 793f
00000090: 8ffb 45bf 314f 613f 7891 e73e 8ee8 9e3e
000000a0: 8c64 0e3f 6569 a7bb ecb0 51bf 2c55 6a3f
000000b0: 7693 0cbe c27d 493f 6c51 c53f 056b f03f
000000c0: 68be 5dbf a5b5 7dbe 07f2 8e3f 10fa 8a3c
000000d0: 7eb9 32be 5525 703f 4724 323e 13e6 ba3c
000000e0: 4fd2 013f e7ea 61be a188 6f3f 4f07 113e
000000f0: c88d 2b3f 660b 47bf cdb8 e2be cb45 0fbf
-0.21509829 -0.20037495 -0.11377196 0.05911466 0.24429585 -0.20241275 0.2422808 -0.13966747
1.4040061 -0.856501 0.686251 1.3281357 0.8085522 -0.16191211 0.31911057 -1.034238
0.32819504 -0.19619195 -0.23899862 -0.28999108 -0.19282426 0.124347724 0.04658942 0.03132829
0.7721737 0.96746445 1.0554384 -1.1145284 1.185992 0.86272556 -0.5377024 0.16082962
-0.5544856 -0.7386829 0.6811493 0.9727783 -0.7733697 0.8801146 0.4522817 0.310368
0.5562217 -0.0051089996 -0.81910586 0.9153621 -0.13728127 0.78707516 1.5415473 1.878266
-0.8661866 -0.24776323 1.1167611 0.016964942 -0.17453572 0.93806964 0.17396651 0.022814786
0.5071153 -0.22062264 0.93567854 0.14162944 0.67013216 -0.7775177 -0.44281617 -0.5596587

l2.bias f4 [8]
00000000: 735e d1be c970 f53e ec36 a7be a11b 163f
00000010: e627 cf3e f9e2 2e3f 66a6 393f c368 0a3e
-0.40892372 0.4793761 -0.3265909 0.5863591 0.40460128 0.6831508 0.7251953 0.13516526

l3.weight f4 [7, 8]
00000000: 6860 a6bd fc89 e8bd bfe1 a3bd 34ae b13e
00000010: 06ca 81bf f3cc 01be f308 9abf dda2 9cbf
00000020: 0d08 4e3e 7f5a 86bf aad1 57bc 2304 07c0
00000030: c6bf 043f 3826 463f 1659 323c 7700 a4be
00000040: 61be 493e ff81 b3bf 456a 9f3e 298a bebe
00000050: e47c 0d3e 7b57 bd3e 4acb 1d3f 0e3f f9bf
00000060: 21c4 893e 40d3 433f 00cf 0cbe 1b9c 8ebf
00000070: 08d9 133f 106d 9bbe c6ea d83e 4d92 edbe
00000080: 101c 1bbd 9fc6 143f 06aa a03d 62e2 aabf
00000090: bc33 94be 8332 1b3f d4bf a3bf aed3 5fbf
000000a0: 9f80 0b3e db3c 7bbf d3dd 9d3e 4993 993e
000000b0: ccad 4fbe dfe5 b4bf a289 363f 3ef7 3abf
000000c0: e45f c1bd 1070 f73e 4bcd 0bbc 221e 7ebe
000000d0: 64f5 6fbf 1764 8fbf 4996 0dbf 1156 8d3f
-0.08123857 -0.113544434 -0.08002042 0.3470322 -1.0139778 -0.12675838 -1.2033981 -1.2237202
0.20120259 -1.0496367 -0.013172546 -2.1096275 0.51855123 0.7740207 0.010885498 -0.32031605
0.1970153 -1.4024047 0.31135765 -0.37214783 0.13817173 0.36980805 0.6163832 -1.9472368
0.26907447 0.76494217 -0.13750839 -1.114139 0.5775304 -0.30356646 0.42366618 -0.4640068
-0.03786856 0.5811557 0.078449294 -1.3350337 -0.2894572 0.6062395 -1.2792916 -0.8743237
0.13623284 -0.98139733 0.308333 0.29995182 -0.20281142 -1.4132651 0.7130376 -0.7303351
-0.09442118 0.48327684 -0.008532832 -0.24816182 -0.9373381 -1.120242 -0.5530744 1.104189

l3.bias f4 [7]
00000000: 2444 4a3e 12b4 d5be fe84 3fbe dbcf e2be
00000010: ed00 aebd a699 a3be 0481 3a3e
0.19752556 -0.41738945 -0.18703076 -0.44299206 -0.0849627 -0.31953162 0.18213278
